AIModel/models/NeuralNetFastAI/model-internals.pkl (torch, 181259 bytes, 19 tensors)

weight f4 [3, 3]
00000000: 7672 16ba b068 b6ba ea17 b83b 936d 23bc
00000010: bd3c 7f3c 679c 87bc 012b 8c3b 92dc 0dbc
00000020: 365f dd3b
-0.0005739102 -0.0013916697 0.005618085 -0.009974855 0.015578446 -0.01655407 0.0042775874 -0.008658545
0.006755735

weight f4 [5, 4]
00000000: 5735 773c 1bcd 563a a6c9 8b3c 2d3b 793b
00000010: a4ab b23c 4004 ec3b 8b12 bfb9 4df6 14bc
00000020: 1ceb a63c e9d7 53bc de9e 4d3b 21bd 0b3c
00000030: 9d94 d1bb d815 88bc feda 913b 42fb 2839
00000040: f694 92ba fb66 8c3b 33f5 213b 70d9 073c
0.015088401 0.0008194015 0.017063927 0.0038029656 0.02181036 0.007202655 -0.00036444174 -0.009091926
0.02037578 -0.012929895 0.003137521 0.008528979 -0.00639589 -0.016611978 0.0044511547 0.0001611533
-0.001118331 0.004284737 0.00247128 0.008291587

weight f4 [4, 3]
00000000: d996 80bc 38bb 493c 2b74 643c cb65 063c
00000010: 9465 823a 416c 59bc 37f1 3ebc c455 0c3c
00000020: fe1b 0d3c b1fc c93b a3f3 9c3b 69bf 983b
-0.01569693 0.012312703 0.013943712 0.00820298 0.0009948486 -0.013270439 -0.01165419 0.00856537
0.008612631 0.0061641564 0.004789786 0.0046614897

weight f4 [4]
00000000: fd05 803f 3f0c 803f f81c 7f3f 0927 803f
1.0001827 1.0003737 0.9965358 1.0011913

bias f4 [4]
00000000: 832e feb9 b0cf c33b 508b 9cba 4664 b5bb
-0.0004848131 0.005975686 -0.0011943374 -0.005535635

running_mean f4 [4]
00000000: 2f42 073c 8c7e a4bc c360 6838 2b62 68b8
0.0082555255 -0.020079874 5.5403227e-05 -5.5404536e-05

running_var f4 [4]
00000000: 56c7 7d3f de5c 703d 49af cd3c 49af cd3c
0.9913229 0.058682315 0.025107997 0.025107997

weight f4 [200, 14]
00000000: 6eaf 2b3e c123 5abe 5e43 68bd 6809 e1bd
00000010: ad09 53bd caa2 57bd 2e56 74be 8d04 6abe
00000020: 6376 2bbd 0208 8e3b b5ef 00be 4d03 c83d
00000030: 521e 71be 17c1 bcbc c0de 6f3e fc29 e7bd
00000040: 5f9b 7c3e 825c c73d e201 78be 0580 2e3e
00000050: 7dda 01bd c557 f8bd 4ace 583e 8b71 60be
00000060: 6c14 f23c be7b 7bbd a114 3e3e 6b9c a43d
00000070: dce4 073e 9f32 be3d bb83 6bbd e5e9 71bd
00000080: 4bab 64be 1c2c 163e 5e7d 5d3e a77f 3f3e
00000090: 9bf8 43be 192b e23b a086 45be 765f 15be
000000a0: 7d0d 1abe 919b b03d d2df 22be d8fb edbb
000000b0: 36c7 453c 8acd 313e 940f 4fbe 278b 3bbe
000000c0: 8a9b 1dbe 1358 3f3e f15d c5bd dd64 683e
000000d0: 3337 ce3d bfc5 ef3c 1680 8cbb c5de 4ebd
000000e0: e206 0e3d 70ca 62bd f476 febb 526d 013d
000000f0: b6ae 56be 210f 10be 4a4d 5c3e 5163 5fbe
00000100: a0a2 7fbc 7c1a 883e 3aa8 c73d de72 cf3b
00000110: 8268 6cbe ebb3 063e 948f 42be e29c a1bd
00000120: f7ab aebd 5e40 1cbd e231 713b 346a 633e
00000130: f2e4 0c3d e1f9 743e 4acd 253e 5d4e 2fbe
00000140: 6d92 003e e17c 3ebe fa3b debd 1ace 963d
00000150: aa9a b03d c7d1 4e3e 5f68 acbd 2586 583b
00000160: 08d9 093e 72f2 83be 1e0f 443e 373e 61be
00000170: 01d5 363b 4211 43bd b113 0cbe 4f11 203d
00000180: 5425 643e fa2c a4bd 38b2 22be d46c c4bd
00000190: 349b 88be 1ed8 f63d c400 02be e383 37be
000001a0: 648e 1dbe f165 1c3e 3035 123e 5d30 533e
000001b0: 7fa1 c13d afbc b1bd 63d5 9fbd 3a5c a83d
000001c0: 4848 5f3e dfe1 923d 9783 00be 7688 00be
000001d0: d0b9 80be c4f4 663d 3de0 1abe 3211 76be
000001e0: c693 703e b5be 2fbe c60f dfbc b6b4 9c3d
000001f0: e047 383c 2674 3bbe 77f4 5dbe 2159 5c3e
00000200: 7973 2e3d fd79 623e f27f b7bd d9c8 9d3d
00000210: c182 7ebd a43f 4bbc ecab 25be 9ad4 bb3d
00000220: 2e3e a83d beac 64bb 516b 68bd a521 2cbe
00000230: 722d 423e 07ac 50be 391b eb3d 8e39 c2bd
00000240: efa0 0bbe fa1b 543d c028 0abe b573 893d
00000250: 9c31 433d 7942 51be 956d 1d3d 672f f13d
00000260: 4ef7 db3d 2396 0dbd c6a0 62be b8cc 1cbd
00000270: 613d bd3d c5e1 c1bd 8efa d83d 4970 343e
00000280: 2173 11be 2e1b 81ba 0d1c eb3d b6f8 c33c
00000290: e0d5 9b3c e58e 153d 88f3 57be fc21 af3c
000002a0: cfce 3f3e c688 743e 73f0 243e c3d7 063d
000002b0: e03c f93d 8dd6 03be 59f7 5fbe 7966 68be
000002c0: 695f 873e afaa 2b3e dbad 35be 0b29 e33d
000002d0: e7cc 523e 30a7 863e 4df6 6e3e a39a 533e
000002e0: 26bf 78bd 4abc c3bd 7544 5e3e ebc1 193e
000002f0: 9fe7 22be 531f 763e 2707 053e 01c0 133e
00000300: 29e3 27be 84fb a13d 5be2 c4bd be4c 583e
00000310: 70f3 30bd 693a cc3d da8b 523d 318b de3d
00000320: d740 c4bd dcf7 063e 9602 3abe a0eb 843d
00000330: 8af8 3cbe d894 88be bdb1 5bbe b118 5a3e
00000340: 19f1 183e e6ec 7b3e cfb1 5b3e 1dcd 73be
00000350: 1dde 3cbe 22a1 38bd 5fb9 32be 7a3c 3d3e
00000360: 88a1 4ebe 25c0 04be c969 84be 1d74 1bbe
00000370: 3a0c 5e3e 5502 623e 29e3 433e 3d83 533e
00000380: 80df 723e 5d6d 8cbd 854e ec3d 8f59 763e
00000390: d954 bb3d ad07 893e b4db 0c3e 47d6 273e
000003a0: 0a61 babd 6602 053e c7e6 093d fc44 7abd
000003b0: 9faf 19be 021b 1abe 6350 53be 8956 393e
000003c0: 49cd 3c3e 5de5 ebbc dbb5 1fbe af8a 523e
000003d0: 8902 2c3e 1ab2 a83c d644 ffbd a9e7 7a3e
000003e0: 3bd4 e83d 0d0e 4ebe df7f 823e eae8 4f3e
000003f0: 4cf9 b3bd 9ed3 103e f07a 1cbe 5a9e 4abd
0.1676614 -0.21302702 -0.05670487 -0.10988122 -0.0515229 -0.052645482 -0.23861 -0.22853298
-0.04186095 0.0043344507 -0.12591441 0.097662546 -0.23546723 -0.023041291 0.23424816 -0.11287305
0.24668644 0.09734441 -0.24219468 0.17041023 -0.031702507 -0.12126116 0.21172443 -0.21918313
0.029550754 -0.061397307 0.18562557 0.08037647 0.13270897 0.09286999 -0.057498675 -0.05906095
-0.22330968 0.14665264 0.21629855 0.18701039 -0.19137804 0.0069021103 -0.19289637 -0.14587197
-0.15044208 0.08623422 -0.15905693 -0.007262688 0.012071421 0.17363563 -0.20220786 -0.18314801
-0.15391365 0.18685941 -0.096370585 0.22694726 0.10069122 0.029269097 -0.00428773 -0.05050542
0.034674533 -0.05536884 -0.007765645 0.031598397 -0.20965084 -0.14068271 0.21513858 -0.2181523
-0.015602738 0.26582706 0.097488835 0.006330832 -0.23086742 0.13154571 -0.19000083 -0.07891251
-0.085288934 -0.038147323 0.0036803414 0.22208482 0.034398027 0.23923446 0.16191593 -0.17119737
0.12555857 -0.18602325 -0.10851283 0.073635295 0.0862325 0.20197211 -0.08418345 0.003303894
0.13461697 -0.2577091 0.19146392 -0.2199639 0.0027897956 -0.04762388 -0.13679387 0.039079007
0.22279865 -0.08016391 -0.15888298 -0.0959107 -0.2668091 0.1205294 -0.12695605 -0.17921405
-0.15386349 0.15273263 0.14278102 0.20623918 0.09454631 -0.08678567 -0.07804372 0.08220716
0.21804917 0.07171988 -0.12550198 -0.12552056 -0.25141764 0.05638577 -0.15124603 -0.24029997
0.23493871 -0.17162593 -0.027229201 0.076516554 0.011247605 -0.18306026 -0.21675287 0.21518375
0.042590592 0.22116847 -0.089599505 0.07704324 -0.062136415 -0.01240531 -0.16178864 0.0917141
0.08214985 -0.0034893001 -0.05674297 -0.1680971 0.18962649 -0.20378123 0.11479802 -0.09483634
-0.1363561 0.051784493 -0.13492107 0.067115225 0.047654733 -0.20435514 0.038434584 0.117766194
0.10740529 -0.03456701 -0.22131643 -0.038281173 0.09240223 -0.0946689 0.105946645 0.17620958
-0.14204074 -0.0009850019 0.1147996 0.023922306 0.019022882 0.036513228 -0.21088994 0.02137851
0.18731235 0.238803 0.16107349 0.03292061 0.12169814 -0.12874813 -0.218717 -0.2269534
0.2643998 0.1676433 -0.17742102 0.11091813 0.20585977 0.2629943 0.23336144 0.20664458
-0.06072917 -0.09557398 0.21705802 0.1501538 -0.15908669 0.24035387 0.1299101 0.14428712
-0.16395248 0.07909301 -0.096134864 0.21123025 -0.04320091 0.09972078 0.051402904 0.108663924
-0.0958268 0.13180488 -0.18165049 0.064902544 -0.18454185 -0.2667606 -0.2145452 0.21298482
0.14935721 0.24602088 0.21454547 -0.23808713 -0.18444104 -0.045075543 -0.17453526 0.18480101
-0.20178807 -0.12963922 -0.25861958 -0.15181012 0.21684352 0.22071202 0.19129623 0.20655532
0.23718071 -0.06856797 0.11538414 0.24057601 0.09147043 0.2676367 0.13755685 0.16390334
-0.0910054 0.12989196 0.033667352 -0.061100945 -0.150084 -0.15049365 -0.20636134 0.18099417
0.18437685 -0.028795892 -0.15596716 0.20560716 0.16797842 0.020592738 -0.12464301 0.24502434
0.11368605 -0.20122547 0.25488183 0.20303693 -0.08787784 0.14143226 -0.15281272 -0.049467422

weight f4 [200]
00000000: bc20 803f 6227 803f 1174 7f3f b7f9 7f3f
00000010: 3d64 7f3f c288 803f c8a1 803f 0f90 803f
00000020: 5d3f 7e3f edfd 7f3f 0d3a 813f 2446 803f
00000030: b256 803f e03e 803f 4cfa 7f3f 2283 7f3f
00000040: 2e74 803f 4c7e 7f3f e131 7f3f 4a16 803f
00000050: 7220 803f 94d5 7e3f c97b 803f 4677 7f3f
00000060: 4439 803f 4121 803f 61dd 7f3f f0e7 7f3f
00000070: 29d6 7f3f faf5 7f3f 87f9 7f3f b008 7f3f
00000080: 54fc 7e3f ad03 803f 5701 813f f1a9 803f
00000090: db20 803f 3be0 7f3f 9b7d 803f 5643 803f
000000a0: 2cb3 7d3f ec94 803f 2c9c 7f3f 72be 7f3f
000000b0: 7fa8 803f ca4b 7f3f edc2 7e3f a787 7f3f
000000c0: 832b 803f ac79 803f 32fa 7f3f d3e7 7f3f
000000d0: 7a50 7f3f 22a9 803f e097 7f3f 77c7 7e3f
000000e0: 3240 803f 76e2 803f 2d07 803f a9c4 803f
000000f0: c416 803f b168 7f3f b7d2 7f3f eebf 7f3f
00000100: bb17 7e3f 0e99 7f3f ba48 803f 9b1b 803f
00000110: 1d69 803f 38bd 7f3f 5e10 813f 0e3c 803f
00000120: 8547 813f 2954 803f 8a37 7f3f c518 803f
00000130: f206 7e3f a80a 803f 8de9 7e3f e456 803f
00000140: 5c7c 803f 93c5 803f ca64 803f 160a 7f3f
00000150: cbba 7e3f 821d 803f 3a3e 7f3f 1de4 803f
00000160: 7608 7f3f 5601 803f 2c7f 803f 0483 7f3f
00000170: ed1c 803f 3c9c 7e3f 3864 7f3f 2b87 7f3f
00000180: f5e7 7c3f 8966 803f 5075 803f a800 803f
00000190: 3074 803f d105 813f db3c 803f e37e 803f
000001a0: 56dc 7f3f 6f2e 803f 54f6 7f3f 5468 7f3f
000001b0: b87c 803f f9a8 7e3f 6d71 7e3f 90bd 7f3f
000001c0: d147 803f 7c3c 803f 0623 7e3f ffb6 7e3f
000001d0: f2a6 803f 78db 7d3f 152a 7e3f 833a 7f3f
000001e0: ab07 7f3f f145 803f f51f 7f3f 3062 803f
000001f0: b7b9 7f3f 3d34 803f aa13 803f 4183 7e3f
00000200: 9e3b 7f3f 7ceb 7f3f 199d 7f3f ffe3 7e3f
00000210: 29d6 7f3f 4eb8 7f3f 4820 803f 7b00 803f
00000220: f71e 7f3f 65ae 803f 63a7 7f3f 6baa 7f3f
00000230: 7ce0 7f3f 060a 803f 32c8 7f3f 9df2 803f
00000240: c932 803f 3201 803f e821 7f3f 4a0e 803f
00000250: 727f 7e3f 8360 803f 606c 803f 7083 803f
00000260: be43 803f dbc8 7f3f ceba 7f3f 5a16 803f
00000270: 0cbf 803f dd0b 803f f1b4 7f3f e925 803f
00000280: cb1e 7f3f 1fa1 803f 0c9b 7f3f abf4 7f3f
00000290: ca70 803f 800d 7f3f b57f 7f3f 7087 803f
000002a0: c7cb 7f3f 2b23 803f b657 803f 566b 803f
000002b0: 9e85 803f ff48 7f3f a190 7d3f c5bb 7f3f
000002c0: cea7 7f3f 3454 803f 3e99 803f 7c53 803f
000002d0: 757d 7f3f 1b72 803f 451c 803f d56e 803f
000002e0: 3943 7e3f 9801 803f 9e64 803f c4f0 7f3f
000002f0: 1cbd 803f 0c71 7f3f aad6 7f3f ca6d 803f
00000300: 2bdc 7f3f 1157 803f ea5f 7e3f 40f5 7f3f
00000310: e20b 803f 599e 7f3f dd21 803f ff07 803f
1.000999 1.0012019 0.9978648 0.9999041 0.99762326 1.0041735 1.0049372 1.0043963
0.99315435 0.99996835 1.0095841 1.0021405 1.0026457 1.0019188 0.999913 0.9980947
1.0035455 0.9980209 0.99685484 1.0006802 1.0009902 0.99544644 1.0037776 0.9979137
1.0017476 1.0010148 0.9994717 0.99963284 0.9993616 0.99984705 0.99990124 0.9962263
0.9960377 1.0001122 1.0078534 1.0051862 1.0010027 0.99951524 1.0038332 1.0020549
0.9910152 1.0045447 0.99847674 0.9989997 1.0051421 0.9972502 0.99516183 0.99816364
1.0013279 1.0037131 0.9999114 0.9996311 0.9973217 1.0051615 0.9984112 0.9952311
1.0019591 1.006911 1.000219 1.0060016 1.0006948 0.9976912 0.999309 0.99902236
0.9925496 0.9984292 1.0022194 1.0008425 1.0032078 0.998981 1.008312 1.0018327
1.0099951 1.0025684 0.9969412 1.0007559 0.9922935 1.0003252 0.9957512 1.0026517
1.0037951 1.0060295 1.0030758 0.99624765 0.99503773 1.0009005 0.99704325 1.0069615
0.99622285 1.0000408 1.003881 0.9980929 1.0008827 0.99457145 0.99762297 0.99815625
0.9879144 1.0031291 1.0035801 1.00002 1.0035458 1.00799 1.0018572 1.0038723
0.9994558 1.001417 0.9998524 0.9976857 1.0038061 0.9947658 0.99391824 0.99898624
1.0021917 1.0018458 0.9927219 0.9949798 1.0050948 0.9916301 0.9928296 0.99698657
0.99621075 1.0021344 0.9965814 1.0029964 0.99892753 1.0015942 1.0006001 0.9941903
0.99700344 0.99968696 0.99849087 0.99566644 0.9993616 0.998906 1.0009851 1.0000147
0.99656624 1.0053221 0.99864787 0.9986941 0.9995191 1.0003059 0.9991485 1.007404
1.0015498 1.0000365 0.9966111 1.0004361 0.99413216 1.0029453 1.0033073 1.0040112
1.0020673 0.99915856 0.99894416 1.0006821 1.0058303 1.000362 0.9988547 1.0011569
0.9965636 1.004917 0.9984596 0.9998271 1.003442 0.99629974 0.9980424 1.0041332
0.99920315 1.0010732 1.0026767 1.0032756 1.0040777 0.9972076 0.9904881 0.9989589
0.99865425 1.0025697 1.0046766 1.0025477 0.9980081 1.0034822 1.0008627 1.0033823
0.99321324 1.0000486 1.0030706 0.99976754 1.0057712 0.9978187 0.99936926 1.0033505
0.99945325 1.002657 0.99365103 0.99983597 1.0003626 0.99850994 1.0010334 1.000244

bias f4 [200]
00000000: 6d53 a73b 6320 9dbb bd18 05bb 4511 0bbc
00000010: 0d1c 743b dccd 82bb 82ee c13a e956 203b
00000020: 01ce 33bb 8e08 823b afdd 4d38 062d 9a3b
00000030: 2323 bbbb 0c8a 89bb c8ed be3a 0a32 08bb
00000040: 01f1 fc39 a2d3 cb3b bec1 163b c2de 8d3b
00000050: 35f3 073c ecf2 db3a 5560 3d3b 5d2a 5d3b
00000060: 3a20 cf3b 6f1e 873b dd96 b738 ad74 a0bb
00000070: d44e f938 e0a5 703b a44d 1f3a 49b0 8abb
00000080: e3fd 2c3c 84ce 5f3b 4c06 2a3b d075 baba
00000090: 6a19 723a 689a af3b 214a 5b3b d906 dbb9
000000a0: 9a76 b338 7d64 85ba 8c67 fbba 6568 833b
000000b0: 5330 89bb 3a70 0bba 7690 a039 8ffe c0b9
000000c0: 3277 72bb 567a a33b a4db ee3a e65f f93a
000000d0: 6ee1 d83b 64a4 35bb d9a9 843b 2825 1d3b
000000e0: d5fd 403b b17a d73a 7c69 35bb 7ba0 4f3a
000000f0: 287e 943a c557 283b e2fe 7c3a 854d 453c
00000100: e2b0 033b 5c34 b53b 971f a23b 7cf7 05bb
00000110: 818c 0e3b 1898 5f3b 2202 233b 79f2 b43b
00000120: 6e3a 06bb 8590 5f3a 3167 9c3a d6ce 963b
00000130: 7d61 4e3c 4fb1 8eba b306 873a 7b2a 923b
00000140: 0156 b739 5962 8fba 01e0 09bc 16ff 99bb
00000150: 52b6 64ba 300d c1bb b1dd cc3b a2ed 8a3b
00000160: 811b 7f3b afb0 b4bb 8bc2 93ba b5bc a8bb
00000170: 0014 15bc b76a a13b f60a 9e3b 17e6 c83b
00000180: c7c5 df39 fd20 413b 9f57 4d3b 3743 1bbb
00000190: a981 b93b 412a e3bb 1e88 4d3b 1cd7 ff3b
000001a0: 40bc 443a 9d8a 1bbb ef97 b1bb 8eb6 92b9
000001b0: debe 9439 7cb3 443b 60ea 293b 7bbf 643b
000001c0: 7c44 60bb 63e2 b638 22c8 053c e259 ccba
000001d0: e5d1 a83a 362e 303b b250 ad3b c2ea f7bb
000001e0: 9f28 be3b 28d7 093b 8b23 0a3c 8971 cb3a
000001f0: aa76 e73a ef11 3c3b 998d 773b 2002 beb9
00000200: 45c2 bd3a 7449 07bc 6604 133c d6e8 093c
00000210: 2308 873b e21b 393b 92ad efba d12e 873a
00000220: 3a31 383b 5cee f0ba a2bb d9ba 3ba1 cf3b
00000230: 9402 983a f46e a5ba 7664 1fbb 536f 463b
00000240: 9fac ab3b 5d75 523b d7e4 7b3b e79a 80bb
00000250: 9456 ff3a d9c9 22bb fb62 c0bb 5713 173b
00000260: 5860 edba 3670 bf3b ba42 82bb cf24 dd3b
00000270: 2629 a5bb a495 dabb ee6b 683a a04f 0a39
00000280: 9058 5f3b 5b5a f33a 9c56 05bb f268 a33b
00000290: ec7a 6f3b f490 b73b ef71 603a 0a97 78bb
000002a0: ae7b 4ebb 3041 3fb9 b4f6 903b 49b5 c13b
000002b0: f8bf 913b 4a59 633b 3460 36b9 fefa 3c3b
000002c0: 40bb a53b 478d 953b 7669 9eba 7ad2 22bc
000002d0: a151 673b 4dfe 913a 69c9 683b a6ea a83b
000002e0: e059 be3a 8b17 5d3a 488c 1e3c 7e2c 343a
000002f0: 3d85 d7ba 4472 da3b 9df1 c13b 4eaf 35b8
00000300: d8e7 94ba b60d 08bb e3d4 ea3a 4097 2fbb
00000310: 4cd9 d0bb 655f 85ba 97b2 6bbb 27b7 263b
0.0051063807 -0.0047951206 -0.0020308935 -0.008488004 0.0037248165 -0.0039918255 0.0014795812 0.0024465865
-0.002743602 0.003968305 4.9082268e-05 0.0047050742 -0.0057109757 -0.0041973647 0.0014566714 -0.0020781779
0.00048244747 0.006220297 0.0023003663 0.0043295333 0.008297731 0.001678077 0.002889653 0.0033747174
0.0063209804 0.004123501 8.7542205e-05 -0.0048967213 0.00011887928 0.0036719963 0.0006076938 -0.0042324406
0.010558578 0.0034150193 0.0025943695 -0.0014225785 0.00092353544 0.005358983 0.0033460932 -0.00041776037
8.5574764e-05 -0.0010177043 -0.001918064 0.0040102475 -0.004186669 -0.0005319152 0.0003062521 -0.00036810755
-0.0036997315 0.004988949 0.0018223417 0.0019025772 0.00661867 -0.0027716393 0.0040485677 0.0023978446
0.002944817 0.0016439763 -0.0027681282 0.0007920337 0.0011329101 0.002568708 0.00096510176 0.012042408
0.0020094444 0.0055299234 0.0049476135 -0.0020441702 0.0021751227 0.0034117755 0.0024873097 0.005522069
-0.0020481604 0.000852831 0.0011932609 0.0046022935 0.012596485 -0.0010886582 0.0010301679 0.0044606305
0.00034968558 -0.0010939344 -0.008415223 -0.004699598 -0.00087246776 -0.0058914647 0.0062520136 0.004239754
0.0038926306 -0.0055142264 -0.0011273188 -0.0051494488 -0.009099007 0.0049260515 0.004823084 0.0061309445
0.0004268123 0.0029469125 0.0031332744 -0.0023691186 0.0056612086 -0.0069325273 0.003136165 0.0078076255
0.0007504858 -0.0023733743 -0.005419723 -0.00027983304 0.00028370967 0.0030014208 0.0025927052 0.003490417
-0.0034220507 8.720604e-05 0.008165391 -0.0015590752 0.0012879936 0.0026883013 0.0052891606 -0.007565827
0.0058031823 0.0021032784 0.008431326 0.0015521507 0.0017659266 0.0028697213 0.0037773608 -0.00036241207
0.0014477452 -0.008257259 0.008973217 0.008417329 0.004120843 0.002824538 -0.0018285981 0.0010313635
0.0028105513 -0.0018381584 -0.0016611705 0.006336359 0.0011597448 -0.0012621568 -0.0024321354 0.0030278757
0.005239084 0.003211341 0.003843596 -0.003924716 0.0019480758 -0.002483955 -0.0058711744 0.00230523
-0.0018110378 0.005842234 -0.0039752396 0.0067487727 -0.0050403057 -0.0066706706 0.00088661804 0.00013190368
0.0034079887 0.0018566357 -0.0020345813 0.0049868757 0.0036541773 0.0056019966 0.00085618993 -0.0037931823
-0.0031506824 -0.00018239464 0.0044239406 0.0059115035 0.0044479333 0.0034690672 -0.00017392711 0.0028836126
0.0050577223 0.0045639607 -0.0012085873 -0.009937877 0.0035296457 0.001113841 0.003552044 0.0051549254
0.0014522634 0.0008433989 0.009677 0.0006873085 -0.0016442906 0.0066664536 0.005918695 -4.3317028e-05
-0.0011360599 -0.0020760125 0.0017916228 -0.0026793033 -0.00637356 -0.0010175525 -0.0035964602 0.0025438757

running_mean f4 [200]
00000000: 673c 583d dae3 173c 8ef7 9f3d 1d33 353d
00000010: 9599 2c3d 264f 553d 54ec 7b3d b540 363d
00000020: e0d0 4f3c fc43 233d 8d77 483c ef09 1b3c
00000030: 1e81 a43d b75c 913d 8ca0 bb3d 3175 b73d
00000040: 126e 643c 2f0c 403d 2780 843c 2982 c13d
00000050: e38f 273d 0b64 e13d 458d 0c3d ef5a a63b
00000060: 6405 513d 87b3 6b3d 48a5 e43d 5df1 593c
00000070: df15 9b3d a995 1b3d de30 c63c 7631 cb3d
00000080: c7e7 253d d372 d93d 49fc 0c3d 0d1c bf3c
00000090: 0bcd d63d b25d 603d f21d cb3c 8266 ca3d
000000a0: 0585 de3d f932 c03d da7e 243c 78ac b53d
000000b0: 9dd0 133c 8230 893d fe4f 503d 018a a23c
000000c0: 324b 183d 9156 4e3d 8099 f33b 199a 303d
000000d0: c15b 433d c08b 653c 1a31 d83d 9a86 9f3d
000000e0: 7483 923d b05b e33d 884b f43d 1ece 873c
000000f0: 436d 9f3d fdce 703d ba36 943b 3bad f03d
00000100: 2884 583d 9f16 e23d c39b 1e3d 42d9 a13d
00000110: c8f2 c73d c081 d03c 5e56 bd3c 6120 dc3d
00000120: c2c2 fa3c 96fc d03d 91d8 dd3d 4f40 4b3d
00000130: 142a c03d db78 763d d871 903d b5b9 d33d
00000140: 8f5e 0e3d 0617 8d3c 0d0c 023d 48b4 fb3c
00000150: 2d8b 083c 58b7 423d 42de 8e3d 57de d13d
00000160: 240a 843d 67e2 a83d 5683 a03d 4c6d 5a3d
00000170: 6566 6f3d efcb de3d e0c6 183a 5ec8 c43c
00000180: f680 a63c bee9 893d 62b4 503d fc65 ec3d
00000190: 6626 aa3c 78ea fe3b 6d6b eb3d 4aa6 923d
000001a0: 5351 b23d 1e1d 813d 1741 193d 4c39 263d
000001b0: 1e83 d13d 0bd5 3c3d 0bb6 483d 3fb3 b83d
000001c0: 546f 7a3d c631 e13d 022b 783d bdc5 793d
000001d0: 04dd 0b3c c433 ac3d 0b3d 363d a0e2 8e3d
000001e0: bad3 303d d4c1 823d dc32 fb3c 53a5 8e3d
000001f0: 7d5c 3c3d c0df 3d3c c500 e23d a089 6a3c
00000200: d495 383d 5212 483d 35bb 713d aa6a 813d
00000210: 3fa7 a13d 4b93 ff3c 61de a23d a764 c03d
00000220: 0a75 c43c 60c6 513c 23c8 b73d c52e cf3b
00000230: d4e9 bc3d c2a3 a43d 5f06 d03c e670 6a3c
00000240: ca9a 893d 5c2a 1c3c e110 273c 9b03 9d3c
00000250: 3223 e53d 12c5 c33d d3d3 b93c e279 353d
00000260: 5088 f43c 4027 a43d aa44 c83d 6ef1 5a3c
00000270: 2854 1c3c fa0c 9f3d d833 bd3d 3c2d c73d
00000280: f8f8 713d 3123 553c 76c0 e33d 67cb 893d
00000290: bdd8 853d b091 e43d ef69 ce3d 824c 4b3d
000002a0: adca cc3c 2e36 5f3c 4a36 093c 4d91 9f3d
000002b0: 518e 053d 126a 283d d2a1 333d 7a53 793c
000002c0: 8d3e 1a3d 1480 1a3d faf3 8f3d c6b9 1c3d
000002d0: 89ac e13d d257 773d f64f dd3d eaa0 bd3d
000002e0: 4f37 bd3c e686 4f3d 57f2 4c3d 868d ae3c
000002f0: d3bb a13d 9775 483d d129 583d 8cd3 293d
00000300: 446b dc3b 8435 363d 6c44 423d edc5 983a
00000310: 0057 1b3c a76d 9d3c 9404 883d b599 803d
0.05279198 0.009270633 0.07810889 0.0442382 0.042138655 0.052077435 0.061504677 0.044495303
0.012684077 0.039859757 0.012235534 0.009462818 0.0803244 0.07097762 0.09161481 0.08957899
0.013942258 0.04688662 0.016174389 0.09448654 0.040908705 0.1100541 0.034314413 0.005076758
0.05103053 0.057544257 0.111643374 0.013302174 0.07572531 0.037984524 0.024193224 0.09921543
0.040504243 0.10617604 0.034420285 0.023328805 0.104883276 0.054776855 0.024794552 0.09882833
0.10865215 0.09384722 0.010040009 0.088707864 0.009021905 0.06698705 0.050857536 0.019841196
0.037181087 0.050375525 0.00743407 0.04311571 0.047694925 0.01401037 0.105562404 0.07789345
0.07153979 0.111014724 0.11928469 0.016577777 0.07784512 0.05879115 0.0045231255 0.11751791
0.05286041 0.11039471 0.038722765 0.07902767 0.09763104 0.025452495 0.023112472 0.10748363
0.030610446 0.10204427 0.108323224 0.049621876 0.09383026 0.06017385 0.07052964 0.10338155
0.034758147 0.017222892 0.031749774 0.030725613 0.008333963 0.04753813 0.06975986 0.10247486
0.06447247 0.08246308 0.0783755 0.05332689 0.05844726 0.10878741 0.00058279745 0.024021324
0.020325165 0.06734036 0.050953276 0.115428895 0.020770263 0.0077794157 0.11495099 0.07160623
0.087069176 0.06304382 0.03741559 0.040581986 0.10230087 0.04610161 0.049001735 0.090185635
0.061141327 0.10995822 0.06058789 0.060979594 0.008536581 0.08408311 0.04449181 0.06976819
0.04317067 0.06384626 0.0306639 0.06965127 0.04598664 0.011588991 0.11035303 0.014315039
0.045064762 0.048845597 0.059016425 0.06319173 0.07893228 0.031198164 0.07952572 0.09394198
0.02398159 0.012803644 0.0897372 0.006322714 0.09224287 0.08039047 0.025393663 0.014309144
0.06718977 0.009531584 0.010196895 0.019166758 0.111883536 0.095590726 0.022684013 0.04430569
0.029850155 0.08015299 0.09778722 0.013363225 0.009541549 0.07766147 0.09238404 0.09725425
0.059075326 0.013008879 0.111206934 0.06728249 0.0653548 0.111606 0.10078799 0.04963351
0.024998987 0.013623757 0.00837476 0.07791386 0.032606427 0.04111678 0.043855496 0.015217656
0.03765731 0.0377198 0.07028957 0.038263105 0.110192366 0.060386486 0.10806267 0.092592075
0.023097662 0.05066576 0.0500358 0.021307718 0.07897153 0.048940267 0.052774254 0.041461512
0.0067266542 0.04448463 0.047428533 0.0011655666 0.009481192 0.019217325 0.06641498 0.06279317

running_var f4 [200]
00000000: 14e8 fe3c 7ffe ce3c 5406 143d 9f5b e73c
00000010: 0698 e83c 70ca f13c 1fc0 0c3d 4fab e53c
00000020: 2516 e13c 5ef4 e13c 09dc e23c d3ec d03c
00000030: 327f 173d 6b91 0e3d c1ef 333d f633 2b3d
00000040: 54c0 cf3c 11ca ea3c 51ba 0a3d 30f0 233d
00000050: bcdf 003d 3356 423d 1c44 de3c ed51 cd3c
00000060: b649 183d 010b 023d cbeb 4f3d 839e f03c
00000070: 801e 0c3d e980 df3c a1b0 db3c 1419 2c3d
00000080: cc6d 093d 946b 353d bdd9 e33c f83f fb3c
00000090: 4c0a 383d 5001 0d3d a60e d83c 8dbd 2c3d
000000a0: 7a19 343d 10f5 2d3d 34c1 d43c 2862 243d
000000b0: 0377 ce3c 4ff4 073d cf38 fa3c b98d d23c
000000c0: 069f e73c 65e5 f93c 981c ce3c 8788 e93c
000000d0: aec6 fb3c afd6 cf3c 069e 613d e18e 123d
000000e0: 6454 0a3d 4d96 503d 4656 5b3d e368 d23c
000000f0: 93b7 113d 0ee5 fd3c 7af5 cf3c 8c0c 543d
00000100: 45b5 113d 06c5 3f3d 2344 fc3c 5447 1a3d
00000110: 2f41 2c3d 645f 033d cd4e d93c d6f5 3a3d
00000120: 4953 dd3c 2238 2b3d 622c 343d a567 f93c
00000130: 9857 353d 310f 013d 213f 163d c3e6 343d
00000140: 1035 0a3d 1eaa d13c 3a2d ed3c 92ba da3c
00000150: 1e49 f63c decd ee3c 7787 123d 1155 3e3d
00000160: 9ce6 023d 0763 303d e619 153d 9989 f83c
00000170: fcb5 fa3c 544d 333d 1611 cd3c 9ac7 d53c
00000180: 4dc3 d33c 7444 153d 7738 083d 3a9b 3e3d
00000190: ca0c d33c f0ac d33c 539b 3e3d bd52 0b3d
000001a0: 32bc 363d f8ba 193d 593c e23c 6d3b f73c
000001b0: ec82 333d 27b1 ea3c 680e ec3c 27e0 1d3d
000001c0: 45fc 013d 7530 3b3d 5507 093d 8678 013d
000001d0: ea55 f93c 58d9 1f3d 07cc e43c 56f4 0f3d
000001e0: 2e94 063d a984 203d 333c da3c bc53 0b3d
000001f0: 3683 f13c ee1f d23c cc1b 3d3d bde6 d93c
00000200: f3a6 113d c905 ec3c 8388 fc3c e42c 023d
00000210: 3a56 113d 0848 f53c 5884 2a3d cba3 323d
00000220: 39f6 ea3c acba d23c e1eb 353d e964 013d
00000230: 5c97 443d 98e9 2c3d 0711 db3c 9177 e23c
00000240: 87fb 033d d751 ce3c a3e1 dc3c 7d33 d93c
00000250: 651a 3f3d c69e 2c3d b83c f03c f07d e63c
00000260: 9dc3 d83c bc12 143d bb28 263d 4891 093d
00000270: 8a24 f33c c06a 123d ce8a 293d 2ca3 433d
00000280: e144 ff3c d25c cf3c c14c 5c3d 3148 073d
00000290: dfe7 043d c813 373d ddb8 323d 3e2c f03c
000002a0: 982d d43c 4676 073d 7d7a de3c 06d3 103d
000002b0: 645b dd3c 29cd 043d 1e0b e63c 4e56 d13c
000002c0: 5a40 e13c 8af4 fe3c cd79 1a3d 0f99 e53c
000002d0: f8e2 403d 12df 043d 4acd 363d cd53 3b3d
000002e0: f221 d63c fc95 013d 3d75 fe3c 8681 d43c
000002f0: e000 113d a357 0b3d bfa4 f63c 5aec e23c
00000300: 41c7 ec3c f858 e83c 0371 ec3c 0d19 cd3c
00000310: adc5 d53c b46f d23c 5e53 053d f8e7 003d
0.031116523 0.025267838 0.036138847 0.02824193 0.028392803 0.029515475 0.03436291 0.028035788
0.02747638 0.027582344 0.027692812 0.025503552 0.036986537 0.03480665 0.04392982 0.0417976
0.025360264 0.028660806 0.03386909 0.040023983 0.03146337 0.047445487 0.027132086 0.02506348
0.03717967 0.031748775 0.05076198 0.02937246 0.034208775 0.027283149 0.026817622 0.042016104
0.033551976 0.044292048 0.027813787 0.030670151 0.044931695 0.03442508 0.026374172 0.042172957
0.04396961 0.042470038 0.025971033 0.04013267 0.025203234 0.033191975 0.030544667 0.025702344
0.02827407 0.030504892 0.025160119 0.028507484 0.030734386 0.025370924 0.055082344 0.03578079
0.033771887 0.050924588 0.053549074 0.02568478 0.03557546 0.03099301 0.025385607 0.051769778
0.035573263 0.046818756 0.030794209 0.03766568 0.04205435 0.032073393 0.026526833 0.045644604
0.027017253 0.04180158 0.04398764 0.03044493 0.04427299 0.03150863 0.0366813 0.044165384
0.03374201 0.025593814 0.02895223 0.026700292 0.030064162 0.0291509 0.03577372 0.046467844
0.031958207 0.04306319 0.03640165 0.03033905 0.030604355 0.043774918 0.025032561 0.026096154
0.025849963 0.036442235 0.033256974 0.046534754 0.025762934 0.025839299 0.046534847 0.034014452
0.04461307 0.037531823 0.027616667 0.030179704 0.04382603 0.028648926 0.028815463 0.038543846
0.031734724 0.04570051 0.033454258 0.03160908 0.030436475 0.039025635 0.02792932 0.035145126
0.03285616 0.039189015 0.026640033 0.034015402 0.029481512 0.02564999 0.046169087 0.026599282
0.035559606 0.028811352 0.030826813 0.031781092 0.035482623 0.029941574 0.04163012 0.043613236
0.028681861 0.025723778 0.044414405 0.031590376 0.04799591 0.04221496 0.026741518 0.027644904
0.032222297 0.025185509 0.02696306 0.02651381 0.04665603 0.042143606 0.029325828 0.028136224
0.026460463 0.03615068 0.040566187 0.033585817 0.02968051 0.035746336 0.04139214 0.047763035
0.031160774 0.025312815 0.053784136 0.03302783 0.032447692 0.0446966 0.04363333 0.029317971
0.025900647 0.03307178 0.027158016 0.035357498 0.027021118 0.03242222 0.028081473 0.025553849
0.027496506 0.031122465 0.037713815 0.028027086 0.047091454 0.0324393 0.044629373 0.045734216
0.026139233 0.031637177 0.031061763 0.025940668 0.035401225 0.034019124 0.030107854 0.027700592
0.028903605 0.028362736 0.028862482 0.02503636 0.026095236 0.02568803 0.03255021 0.031471223

weight f4 [100, 200]
00000000: 6bee 29b9 84c5 d7bc 50ac 623c e4c3 3ebd
00000010: faa3 453d df1c 15bd c7e4 403c c508 88bd
00000020: 296e 043d 4fe6 4d3d 1108 653d 3987 023c
00000030: c351 2c3d e63b c53c 5b62 3d3d eba2 2e3d
00000040: 76fe 6fbd 0f35 323c 3f31 c1bc 1724 02bd
00000050: 64f5 453d 804d 3fbc f3b1 643c 4bf2 333d
00000060: b6e0 493d e2b7 133d 4cf3 37bc b69d 74bd
00000070: 0826 87bd a9ed b33c 3840 46ba bd91 36bd
00000080: f165 013d 00c4 7e3d 0a00 2c3d dad5 05bc
00000090: ea85 1e3c c813 2ebd 9411 153d 5d4f 64bd
000000a0: 0358 563d 63da 08bd dda7 d9bc 78da 7bbd
000000b0: ba8a 6cbc ec41 d4bb 6894 12bd 0321 463d
000000c0: a938 253d 1257 85bd 1aac c7bb ae17 bd3c
000000d0: 6393 893d e514 8bbc 45fa 283d 23d9 41bb
000000e0: 3bf7 d9bc 1b84 293d 7b63 85bd 8ba2 783d
000000f0: 6f99 8e3d 84ed 7cbc 990b eb3c 662f 8d3d
00000100: e7c7 ba3c 4993 cb3c 2856 d03c 39f6 f8bc
00000110: f63d 943c 88a4 14bd 3f90 7d3d 688e 00bd
00000120: 4405 793c bda9 89bc 4ccc 1b3d e6bd 0d3b
00000130: ec5a 283d 488d a4bc 4998 23bd f4e0 d43c
00000140: 1794 2cbd 6e42 6ebd b6c9 fb3c b707 32bd
00000150: 1bc8 d9bc a575 8dbc d774 753b d144 bdbc
00000160: 13d0 bbbc 4494 77bc c245 503d 5a73 aa3c
00000170: 8ceb f3bc f4ca 3abd 2983 92ba fe57 af3c
00000180: 129c c939 1a2f 363d bc29 803d acd6 bc3c
00000190: 5525 bd3c 4443 253d 7c9d b8bc 25eb 373c
000001a0: b55a 653d 2c9b 02bd 2f82 1a3c fba7 e0bc
000001b0: deca 5ebd d7e8 273d 55c0 6d3d 1fdf 0bbd
000001c0: e159 dc3c f719 a23c 7cce d33c 1d7f 1e3d
000001d0: 162b 8a3d f7ea 563d d93a 76bd c201 eebc
000001e0: cb83 1d3d 4471 2dbd acc3 803c 9aba fcbc
000001f0: 24eb 473c 23d7 163d 8916 b13c 008d 523d
00000200: 8bcd 30bc 8479 213d 3855 cb3c 6410 a8bc
00000210: 39c1 3fbd dd53 843d 1b36 a5bc 6a9f 643d
00000220: 0826 423d cb41 55bb 32af 6cbd 74bf fb3b
00000230: 231c 06bd 93f4 823c d282 cbbc 5fc9 563d
00000240: e091 7ebd 274f a1bc 4446 383c 85f3 ef3b
00000250: 51f8 733d 5395 aabc ca99 5cbd 2878 4d3d
00000260: a36b a63c fa31 4c3d 6663 1fbd 5b4d 34bd
00000270: fc52 d5bc 532d c13b 1e7e e43c 5c1b 26bd
00000280: 3701 cebb 2d75 32bc caab 853d 7c86 dfbc
00000290: e243 913d 90fd 2cbd e280 eebc 3087 54bd
000002a0: a61a 5c3d ba21 3dbd 6d2f 043d 5825 ddbc
000002b0: 8617 943d fc71 123c 2586 7fbd 3bfd 443c
000002c0: 948c e23b e158 8cbd 2ae6 883c 38c2 8c3d
000002d0: c66e 9b3c 2e2a 953a 87ed 73bc 02ea 8e3c
000002e0: 5523 02bd c2f6 8b3d dd3b 7b3d dec6 053d
000002f0: 501d bbbc 9488 8cbd 8026 29bd f888 963d
00000300: e0ba 89bd 20c7 8bbd 7044 48bb 4ca6 cf3c
00000310: 1947 8cbd c945 87bd 1193 803b 6be8 9cbc
00000320: b3eb 583d c8bf 873c 7a7d 7dbd b785 7ebd
00000330: 5a37 493d 8d5e 61bc 01d4 09bd 0239 943c
00000340: a3c8 3bbc f233 f03c 383e ab3c 95bd dabc
00000350: d9ad 65bd b1a9 1c3d a92a 2abd 28ec 87bb
00000360: 57b6 173c 6225 26bd 7100 1d3d 7af3 44bd
00000370: a886 a53c 72bf 033c a2fa c73c b977 93bd
00000380: 71c3 ff3b 8b31 0a3d 2027 33bd bf41 a93c
00000390: ec47 803a 640e 6b3d da15 3ebc 4b8d 2abb
000003a0: 968c e8bc 213e 96bc 93bc b93c 5392 82bd
000003b0: 0a0a 5a3d b53c 583d e56c 0a3d 9908 533d
000003c0: 9934 cfbc 53b0 703c c1f4 073c 66b6 4fbd
000003d0: 80d3 bcbc 6b24 d8bc d23f 93bc d1d2 82bd
000003e0: 8566 41bd 09fe b6bb 588a 75bc dc81 85bd
000003f0: 282f 993c 0179 103d 1ffe 7a3d 63cd 613d
-0.00016205914 -0.0263393 0.013835028 -0.046573535 0.048252083 -0.036404487 0.011773295 -0.06642298
0.03233162 0.050268468 0.055915896 0.00796681 0.04207016 0.024076413 0.046236377 0.04263584
-0.058592282 0.010876908 -0.023583053 -0.0317727 0.048329726 -0.011676192 0.013958442 0.04393224
0.049286567 0.036064036 -0.01122744 -0.059720717 -0.06599051 0.021963911 -0.000756267 -0.04457258
0.03159136 0.06219864 0.041992225 -0.008168662 0.009675482 -0.042499334 0.036393717 -0.05573975
0.05233003 -0.033411395 -0.026569301 -0.061487645 -0.014437372 -0.006477585 -0.035786062 0.048371326
0.04033724 -0.06510748 -0.006093514 0.02308258 0.06717565 -0.016977737 0.0412543 -0.0029578886
-0.026607146 0.04138575 -0.06513115 0.060701888 0.06962859 -0.0154374875 0.028692054 0.06893806
0.022800399 0.024850504 0.025431708 -0.030390846 0.018095952 -0.03628972 0.061905142 -0.03138581
0.015199009 -0.01680457 0.03803663 0.002162808 0.041102335 -0.0200869 -0.039940152 0.025986172
-0.042133417 -0.05816882 0.030735832 -0.04346439 -0.026584676 -0.017268011 0.0037453675 -0.023104103
-0.022926366 -0.015111033 0.050847776 0.020806957 -0.029775403 -0.045603707 -0.0011178005 0.021404263
0.0003845399 0.044478513 0.0625796 0.023051582 0.02308909 0.040347353 -0.022536032 0.011225496
0.055994708 -0.031886265 0.009430452 -0.02742385 -0.054392688 0.040993538 0.05804475 -0.03414833
0.026898326 0.019787772 0.025855295 0.038695443 0.06746499 0.052470174 -0.060114715 -0.029053573
0.038455766 -0.042344347 0.015718304 -0.030850697 0.012202058 0.036826264 0.02161719 0.051404
-0.010791193 0.039422527 0.024820909 -0.020515628 -0.04681513 0.06461308 -0.020167401 0.05581609
0.04739955 -0.0032540436 -0.057784267 0.007682735 -0.032741677 0.015985763 -0.024842653 0.052438136
-0.062150836 -0.019691063 0.011247221 0.007322731 0.059562985 -0.020823156 -0.053857602 0.050163418
0.020314997 0.04985235 -0.038913153 -0.044019084 -0.026040547 0.0058952956 0.027892169 -0.040553436
-0.006286766 -0.010892195 0.06526907 -0.027285807 0.07093026 -0.042234004 -0.02911419 -0.051886737
0.05373635 -0.046174742 0.03227179 -0.026995346 0.07231049 0.008938309 -0.06238379 0.0120232655
0.006913731 -0.0685289 0.016711313 0.06872982 0.01897372 0.0011380368 -0.014888174 0.017445568
-0.031771977 0.06834175 0.061336387 0.032660358 -0.022841126 -0.06861988 -0.041296482 0.073503435
-0.06725097 -0.068250895 -0.003055837 0.025347851 -0.06849498 -0.06605107 0.0039237817 -0.019153794
0.052959155 0.01657094 -0.061887242 -0.06213924 0.049125053 -0.013755453 -0.03364945 0.01809359
-0.01146141 0.029321644 0.020903692 -0.026701728 -0.056073997 0.038247768 -0.04154459 -0.004148025
0.009259782 -0.040562995 0.0383305 -0.04808376 0.02020581 0.00804125 0.024411503 -0.0720057
0.007805281 0.033738654 -0.043738484 0.020661233 0.0009787059 0.05738677 -0.0116018895 -0.0026024159
-0.02838735 -0.018340172 0.022672927 -0.063755654 0.05323223 0.05279227 0.033795256 0.05152187
-0.025293635 0.0146904765 0.0082981 -0.050711058 -0.02305007 -0.026384553 -0.017974768 -0.06387866
-0.04721691 -0.0055844826 -0.014986597 -0.06518909 0.018699244 0.03527165 0.061277505 0.055127513

weight f4 [100]
00000000: 04af 7e3f 3572 7e3f 119d 7f3f a208 7e3f
00000010: 1e69 7f3f 4e28 7f3f 6404 803f c630 7f3f
00000020: e80f 7f3f da53 7d3f 9380 7f3f 0882 7e3f
00000030: 9d65 7e3f e6f3 7e3f 790a 7f3f b7c9 7e3f
00000040: 9b88 7e3f 3d79 7f3f feff 7e3f 58cd 7e3f
00000050: a20b 803f dbfb 7f3f 6f11 803f f034 7f3f
00000060: cd5b 803f 96c5 7f3f e07b 7f3f 330a 7f3f
00000070: c922 7f3f 8657 7f3f c45d 7e3f d57a 7e3f
00000080: b9eb 7f3f 13b1 7e3f 2c5c 7e3f 26ab 7e3f
00000090: 3444 7f3f 9461 7f3f 5118 7e3f f5aa 7e3f
000000a0: 6534 803f ec90 7e3f c9c8 7e3f 2e28 7f3f
000000b0: e2d2 7f3f ccde 7d3f 4e0f 7f3f 7baa 7e3f
000000c0: 8b8f 7e3f 52a2 7d3f a059 7f3f 226c 7f3f
000000d0: f167 7f3f 9dd3 7e3f 9305 803f 8749 7f3f
000000e0: 1d0d 7f3f 086f 7e3f 49e0 7f3f 7490 7f3f
000000f0: 598d 7e3f be97 7e3f 2d0f 7d3f 4601 803f
00000100: 6648 7f3f 980d 7f3f b116 803f 5d39 7f3f
00000110: 7839 7f3f 4765 7e3f 60b8 7e3f ca36 7f3f
00000120: 83d7 7f3f e275 7d3f 8b31 803f aa23 7d3f
00000130: e7f2 7f3f 085e 7e3f c7ff 7f3f c3e3 7e3f
00000140: b9bf 7f3f 738b 7f3f e6c6 7f3f 1650 7f3f
00000150: 428a 7f3f 0d16 803f 8543 7f3f f8a9 7f3f
00000160: a5f8 7e3f 6152 7e3f 6a47 7e3f f155 7f3f
00000170: 204f 7e3f e43d 7f3f f3a8 7f3f 2255 7d3f
00000180: 24e5 7f3f 814f 7e3f 8ada 7f3f 3108 7e3f
0.994858 0.99393016 0.9984904 0.9923192 0.9976977 0.99670875 1.000134 0.996838
0.99633646 0.9895607 0.99805564 0.9941716 0.993738 0.9959091 0.99625355 0.9952654
0.99427193 0.9979437 0.99609363 0.9953208 1.000355 0.99993676 1.000532 0.9969015
1.0028015 0.9991087 0.99798393 0.9962494 0.9966245 0.99742925 0.99361825 0.99406177
0.9996906 0.99488944 0.99359393 0.994799 0.99713445 0.9975827 0.99255854 0.9947961
1.001599 0.99439883 0.99525124 0.99670684 0.99931157 0.99168086 0.9963273 0.9947888
0.9943778 0.99075806 0.9974613 0.9977437 0.99767977 0.99541646 1.0001701 0.9972157
0.99629384 0.9938817 0.99951607 0.9982979 0.9943443 0.9945029 0.9885128 1.0000389
0.99719846 0.9963012 1.0006925 0.99696904 0.99697065 0.99373287 0.99500084 0.99692976
0.9993822 0.99008 1.0015119 0.98882544 0.99980015 0.9936223 0.9999966 0.99566287
0.9990192 0.9982216 0.9991287 0.99731576 0.9982034 1.0006729 0.997124 0.99868727
0.9959815 0.9934445 0.9932772 0.9974051 0.99339485 0.9970381 0.9986717 0.9895803
0.99959016 0.99340063 0.9994284 0.9923125

bias f4 [100]
00000000: 571e 9e3c c921 8dbc 87c2 8ebc 587b 8dbc
00000010: b8df 87bc de8f 8ebc a7f4 8ebc 28b2 9e3c
00000020: 9d20 9e3c 7012 9d3c 1154 993c de59 9e3c
00000030: 3bb0 8dbc b143 9d3c 1bb4 9c3c 5336 8ebc
00000040: dcc2 9b3c 72c0 9e3c fba9 963c 5921 8cbc
00000050: 886a 9f3c 0094 8ebc b68c 8fbc 6073 9d3c
00000060: 8763 9f3c 8454 8ebc dc57 8ebc 1b29 9d3c
00000070: 6c73 9e3c 699a 8ebc eea5 9d3c a417 9b3c
00000080: ae4e a03c 042a 9c3c f056 9e3c 6910 8ebc
00000090: 6fc0 9e3c cdc2 9d3c d701 9e3c 0fcd 8dbc
000000a0: 63d3 8fbc 90e6 8dbc 6e0e 8ebc 4aac 8bbc
000000b0: 38e0 8ebc 7067 9c3c 9cfa 9d3c 6790 83bc
000000c0: 60e2 813c 2525 803c a077 80bc 6d7b 9e3c
000000d0: eaf8 9e3c 63e3 8dbc 0aa2 8ebc 1679 8ebc
000000e0: 24ea 9e3c 9d4a 9c3c 7375 8ebc f818 9f3c
000000f0: 246d 753c 07c2 9e3c 789d 8cbc 1108 8fbc
00000100: 9c44 8ebc 83ae 9e3c 8647 8fbc 7f78 9d3c
00000110: 1d6f a5bb 9566 8dbc e6fe 9d3c 6de5 87bc
00000120: 2f46 9f3c 923f 9c3c 5696 8fbc e82a 8bbc
00000130: 2ddc 8ebc 412f 8ebc b6fb 8ebc 2849 9e3c
00000140: 3f47 8ebc 1498 9e3c d583 8ebc 5388 8dbc
00000150: 9854 9e3c 5cf1 9f3c 08c2 8abc feca 9e3c
00000160: a9b0 9e3c 5865 8ebc 8a30 813c 9d6c 8ebc
00000170: bbbb 84bc 96f6 8cbc 68b6 8ebc 650e 9d3c
00000180: b70c 93bc b64e 9d3c 40af 9e3c 3449 9a3c
0.019301577 -0.017228024 -0.017426742 -0.017270729 -0.01658617 -0.017402586 -0.017450644 0.01937206
0.01930266 0.01917383 0.018716844 0.019329961 -0.017295947 0.019197317 0.01912885 -0.017359888
0.019013815 0.019378874 0.0183916 -0.017105745 0.019459978 -0.017404556 -0.01752315 0.019220054
0.019456638 -0.017374285 -0.017375879 0.01918464 0.019342147 -0.017407613 0.01924416 0.018932171
0.019568767 0.019063003 0.019328564 -0.01734181 0.019378869 0.019257927 0.019287987 -0.017309694
-0.017556852 -0.017321855 -0.017340865 -0.017049927 -0.0174409 0.019092292 0.019284539 -0.016060067
0.015855014 0.015642712 -0.015682042 0.019345963 0.0194058 -0.01732034 -0.01741125 -0.017391723
0.019398756 0.019078547 -0.017389989 0.019421086 0.014979634 0.019379629 -0.01716493 -0.017459901
-0.0173667 0.019370323 -0.01749016 0.019222496 -0.005048646 -0.017260829 0.019286584 -0.01658889
0.019442646 0.019073281 -0.01752774 -0.016988233 -0.017438972 -0.017356517 -0.01745401 0.019321993
-0.017367957 0.019359626 -0.017396847 -0.017276919 0.019327447 0.019524269 -0.016938224 0.019383904
0.019371348 -0.017382309 0.015770216 -0.017385775 -0.016202798 -0.017207425 -0.017420962 0.019171903
-0.017950399 0.019202571 0.019370675 0.018833734

running_mean f4 [100]
00000000: 9e8b 483e 2498 143e 406b 9c3e 2e0f 803e
00000010: d8a4 a93d 908d a33e d848 673e d9a8 0c3f
00000020: a323 163f e6bc 233e d6ba a73e 78ff 0f3e
00000030: aa25 dd3d c75e 993e 4d7f 003f 6287 c63e
00000040: 6093 463e d219 b33e c1ab a03e 7c61 fb3d
00000050: 49b8 163f 1448 973e db06 4d3e 262b c83e
00000060: ee4a ec3e 2b0b a83e c0f9 783e 9343 883e
00000070: b9f7 013f 7407 af3e 244b 513e 3849 133e
00000080: 6064 8c3e 0692 5e3e d929 743e bd1d f13e
00000090: 47c8 ab3e 7f1b c73e 9a3c 293e 5f52 4a3e
000000a0: 042b 833e a514 353e f0f0 133e 6c88 123e
000000b0: eea1 c03e 708e 353e 76b9 453e c280 a23d
000000c0: 30a0 043e 9373 4f3e 6b12 2f3e 1950 013f
000000d0: 840c a83e 4adc 503e 9835 d33e 45e6 b83e
000000e0: 5d0b e03e 06f8 813e de65 943e 0caf 103f
000000f0: 7ac3 c03e 883a ec3e f81c 863e b85a 993e
00000100: 867e 563e a4bf 123f 43aa 563e a994 523e
00000110: 5b2e ef3e ce7b b93e 4cc7 a23e 1634 eb3d
00000120: f6e7 513e 6208 223e 229f 6d3e 626d e63d
00000130: 17cc cf3e 57c2 6c3e f762 403e e5c1 923e
00000140: 25eb b93e e66b 293e ec73 db3e f94a 763e
00000150: 5310 4d3e 3c13 d83e 17c1 393e 1c47 113f
00000160: fef7 063f f01a b63e 48ad 833e 2c50 b23e
00000170: 17b1 143e 884f b63d c6c6 0f3f 37f3 573e
00000180: 0085 cd3d 2497 8a3e a3c1 653e 9bca 103e
0.1958451 0.14511162 0.30550575 0.2501158 0.082833946 0.3194394 0.22586381 0.5494514
0.5864813 0.15990028 0.32759732 0.14062297 0.107981995 0.29955122 0.50194246 0.38775164
0.19392157 0.34980637 0.31381038 0.12274453 0.58874947 0.2954718 0.20022146 0.3909542
0.46150917 0.3282102 0.24314022 0.26614055 0.5076862 0.34185374 0.2043882 0.143834
0.2742033 0.21735391 0.23844089 0.47093 0.33551237 0.38888165 0.16527024 0.19757985
0.25618756 0.17683657 0.14447379 0.14309853 0.37623543 0.17730117 0.19309029 0.07934715
0.12951732 0.20258932 0.1709687 0.50512844 0.3282205 0.20396534 0.41251826 0.36113182
0.4375867 0.2538454 0.28983968 0.565171 0.37649137 0.46138406 0.26193976 0.29952025
0.20946702 0.5732367 0.20963387 0.20564522 0.46715054 0.36227268 0.31792676 0.11484544
0.20498642 0.1582351 0.23205236 0.11251332 0.40585396 0.2312101 0.18787752 0.28663555
0.36312214 0.16545066 0.4286188 0.24052037 0.20025758 0.42202175 0.18140064 0.5674913
0.52722156 0.35567427 0.2571814 0.3482679 0.1452068 0.08901888 0.5616268 0.21088873
0.10035133 0.27068436 0.22437148 0.14139788

running_var f4 [100]
00000000: 8644 313e 9b7b 663d 824a 0b3e dd63 b83d
00000010: 1167 4a3d 29bc 653e 13c8 133e e23c f63e
00000020: 887e 9e3e d558 c93d 2bc2 653e 7a21 ba3d
00000030: 635c a03d 0fbb 6a3e 2f2f 013f 9167 f43e
00000040: 53a9 a53d 50e5 673e e729 7d3e b1fa 693d
00000050: 4a21 453f 03b7 883e 1cfa 2c3e 5ad0 213e
00000060: 9bc7 123f d9bd 9a3e b95e 3a3e 748d 553e
00000070: eb92 313f f8ab a93e b7bd 283e b6fa 683d
00000080: b9d6 603e f7bd 233e 29ba e43d 63b9 983e
00000090: df2a 5a3e fd53 a23e ce0f e43d 8920 003e
000000a0: 9f80 623e b908 013e e79b f93d 48a4 843d
000000b0: a451 cb3e b741 063e 45d5 123e bb22 1f3d
000000c0: 536d 5c3d 4c2b 2d3e ebcd d33d 3c6c 163f
000000d0: 3f5b 8b3e 9e6d 0b3e fa08 cf3e 5efd aa3e
000000e0: 4f77 e13e 78f4 073e 760a 683e be0c d53e
000000f0: 5c2e 243e c28c d73e 17d4 3f3e 713b 803e
00000100: 606b 2d3e e237 103f 7a33 303e ab66 063e
00000110: f11f 1f3f 81a7 523e 94c4 ed3d 2b83 453d
00000120: 24a9 fd3d 520d f23d 6c5d 473e 6b4b 7c3d
00000130: 8644 133f 0d77 e33d 1e22 0d3e f5a8 e53d
00000140: 5aad af3e d4e9 d33d a208 013f 8b1d bd3d
00000150: 63a3 aa3d afe2 b93e 4c24 d83d 1b9c 073f
00000160: 9a32 fd3e c590 a43e 53f3 723e bf40 a73e
00000170: 5276 843d 781b 213d f272 2d3f 567b 9b3d
00000180: 0264 693d ab73 743e 5440 f73d 2981 6e3d
0.17311296 0.056270223 0.13602641 0.090034224 0.049414698 0.22435059 0.14431791 0.48093325
0.3095591 0.098313965 0.2243735 0.090884164 0.07830121 0.2292292 0.5046262 0.47735265
0.08088937 0.2264607 0.24723016 0.057123844 0.7700392 0.26702127 0.16892284 0.15802136
0.57335824 0.30222967 0.18200196 0.20854741 0.69364804 0.33139014 0.1647862 0.05687972
0.2195691 0.15990435 0.1116832 0.2982894 0.21305417 0.31704703 0.11135827 0.12512411
0.22119378 0.12600984 0.12187939 0.06476647 0.39710724 0.13111006 0.14339168 0.03885148
0.053815197 0.16911048 0.1034201 0.587589 0.27218053 0.13616034 0.40436536 0.3339643
0.44036338 0.13276851 0.2266024 0.41611284 0.1603331 0.42099577 0.1873325 0.2504535
0.16935492 0.5633527 0.17207137 0.13125102 0.62158114 0.2057171 0.1160976 0.048220795
0.12385777 0.11818947 0.19469231 0.06159536 0.57526433 0.111066915 0.13782546 0.112138666
0.34311944 0.103473336 0.504038 0.092341505 0.08331945 0.36305758 0.10553798 0.52972573
0.49452668 0.321417 0.23725633 0.32666585 0.0646788 0.039332837 0.6775352 0.07591884
0.05698014 0.23872249 0.120728165 0.058228645

weight f4 [2, 100]
00000000: a567 28ba 8810 903d 422c b63c 1905 6a3d
00000010: 587c 7f3d 10eb 553d eb4c 733d 9b01 abbd
00000020: cea2 d83c 94f7 07bc 171a cc3c dc89 3bbd
00000030: 1b61 c03d ac5d e0bc 64fd 3d3d 9b5a a83d
00000040: c08d a3bd 1a51 19bd e283 a0bd 5fdb ab3d
00000050: 31ed 7ebd a195 993d c4e6 b2bc dbdc c2bd
00000060: 905f 74bd 2dc6 65bc f76d b33d 7e18 bcbd
00000070: 3f34 52bd 4b7d 8e3d 10f5 03bd 2e8c 23bd
00000080: 0d07 fb3c 960f 48bd 5bae 53bd b36e ae3d
00000090: 46f7 d7bc 6893 a3bc ce3c a7bd f491 523c
000000a0: 307f 8bbc 37ed 4b3d d98c 143c b642 893d
000000b0: 682d a73d e2a0 87bd f79b 31bc 9a5c 4c3d
000000c0: 29a9 aa3d 8c72 a23d 8326 cb3d bbfe c2bd
000000d0: 4012 0fbd 0ae3 8bbc d9da a03d 1f26 ac3d
000000e0: 80d2 c2bd 238c 8abc 5bfb 57bd 3745 8bbd
000000f0: 8b0b 87bd 6f6c a5bd b0df 823d 13a3 07bb
00000100: 865c 893d cb2c 92bd f42a 863d e45a 75bb
00000110: 44f0 9e3d 3a43 243d 62d8 a3bb 1d91 673d
00000120: 51da 0abd acfc c73c 4710 8a3c 9a6e 0dbc
00000130: e134 14bc 6056 9d3d 2e60 663c 7e68 83bd
00000140: cdcd 6a3d 1f95 87bd 2be2 893d fd31 be3d
00000150: 4833 16bd f9fe 8c3c 0b75 2f3d 7cd6 ec3c
00000160: 65cb a1bd 0776 aa3d 23b3 5cbd 692c ff3c
00000170: 1eb9 09bd 4431 92bd b87f ff3c 3009 b1bc
00000180: 01b6 4c3d 5559 ba3c 2e78 26bd d1dc ad3c
00000190: 4ad1 a93d f360 e53c fcbe afbd afbe 81bd
000001a0: 0207 723d 663d 91bd ff3b d83c 6b3a 0c3d
000001b0: 7177 9d3d e647 883d 1bb3 003d 134e 273d
000001c0: c5e7 933b 7e38 113b fc81 843d 8626 80bd
000001d0: ffe9 5abd 3beb 873c e564 97bd 99b5 783d
000001e0: 36fe 933d 835c 71bd e737 5bbd 7ca4 74bd
000001f0: 5f1a 893d a1be 49bd 8419 b6bc 21ae 8cbd
00000200: 0e00 cc3c 298f b1bb 1c8c db3c fe81 92bc
00000210: 8b9c 313d 1993 9ebc b719 9e3d a7ff c8bc
00000220: 9416 a33d c4d4 5abb 5d57 ab3b 247f 1cbd
00000230: 6d7b 8fbd 78aa 59bd 49d5 92bd eb09 7b3d
00000240: 7ff7 413d d4f7 57bc d413 3f3d 173e 293d
00000250: 049c ac3d 7660 a53d d7ee bc3d 7e0d 2cbd
00000260: ee1d ae3d 09d3 c2bd 0743 113d 9fcd 6bbd
00000270: 23d4 873d c340 993c fbe3 b3bd bb45 bb3c
00000280: d2ab 7fbd 687f ab3d 509e 9ebc 53ef a9bd
00000290: b4b4 35bd 23c0 b53d 4f06 ad3c 8080 d23c
000002a0: 33cb 933d 06aa cbbc a055 853d 33d6 463d
000002b0: b112 2d3b eb76 a03d 9a6a 17bc 4c71 4bbd
000002c0: d88b ccbd 5140 81bd 91b5 82bd ed40 043d
000002d0: f450 293d d0bf d7bc fbdc 0a3c bced b23d
000002e0: 2a8d 3abb d40c 723d 82b2 103d e63c c03d
000002f0: 12d4 b53d 9afc 83bd 0e00 57bd 5b3a 5abd
00000300: d494 0fbd 6574 9cbd 971f adbd c002 673d
00000310: 4876 2b3d 680a 913d cee9 85bc ba07 2f3d
-0.00064241356 0.07034403 0.0222379 0.057133768 0.062374443 0.052226126 0.059399527 -0.083499156
0.026444819 -0.008298773 0.024914784 -0.04578577 0.093935214 -0.027388416 0.04638423 0.082204066
-0.07986021 -0.03743086 -0.07837655 0.08391451 -0.062237922 0.074992426 -0.021838553 -0.09514781
-0.059661448 -0.0140243 0.087612085 -0.09184359 -0.051319357 0.069574915 -0.03221613 -0.039928608
0.03064301 -0.04884299 -0.05167995 0.08517208 -0.026363026 -0.01996775 -0.081658944 0.012852181
-0.017028421 0.049786773 0.009066784 0.06702177 0.081629574 -0.06622483 -0.010840408 0.049893
0.08333046 0.07932004 0.09919455 -0.09521242 -0.034929514 -0.017076034 0.07854242 0.084057085
-0.09512806 -0.016912526 -0.052729946 -0.06800311 -0.065939985 -0.08077323 0.06390321 -0.0020696565
0.067071006 -0.0713745 0.065511614 -0.0037438208 0.07760671 0.040103175 -0.00500016 0.056534875
-0.03389961 0.024412476 0.016853465 -0.0086323265 -0.00904581 0.0768249 0.014061017 -0.06416415
0.057325173 -0.066202395 0.06732591 0.09286878 -0.03667 0.017211424 0.04283623 0.028910868
-0.079001226 0.08323293 -0.053881776 0.031149106 -0.033623807 -0.07138303 0.03118883 -0.021610826
0.04997826 0.022747675 -0.040641956 0.021223458 0.08291872 0.02800033 -0.08581349 -0.06335198
0.059088714 -0.07091789 0.026395796 0.0342354 0.07688797 0.066543385 0.03142081 0.04084594
0.004513713 0.0022158916 0.06470105 -0.06257348 -0.053445812 0.016591659 -0.07392291 0.06072006
0.07226221 -0.058926117 -0.05352011 -0.059727177 0.06694483 -0.049254064 -0.022228964 -0.0686915
0.02490237 -0.0054186773 0.026800208 -0.01788425 0.04336218 -0.019357251 0.077197485 -0.024535967
0.07963291 -0.0033390978 0.0052289204 -0.03820719 -0.070059635 -0.053141087 -0.07169587 0.061288755
0.04735517 -0.013181645 0.04664977 0.04131898 0.08428195 0.08075039 0.092252426 -0.042005055
0.085018024 -0.09512908 0.035464313 -0.057569142 0.06632259 0.018707639 -0.08783718 0.022860399
-0.06241972 0.0837391 -0.019362599 -0.082976006 -0.044361785 0.08874538 0.021121172 0.02569604
0.072164916 -0.024861347 0.06510472 0.04854412 0.0026408846 0.07835182 -0.009241724 -0.049668595
-0.099876106 -0.063110955 -0.06382287 0.03228848 0.04133697 -0.02633658 0.008475537 0.087367505
-0.0028465488 0.059094265 0.03532649 0.093866155 0.0887834 -0.06444664 -0.052490287 -0.05327831
-0.035054043 -0.07639388 -0.08453291 0.056399107 0.04186085 0.07082063 -0.016346838 0.042731978

bias f4 [2]
00000000: 61af edbd 176d 283d
-0.116057165 0.04111966
